snapshots/featnet.pth (torch_old, 134573 bytes, 4 tensors)

weight f4 [16, 1, 3, 7]
00000000: d8de b73d a1f3 aa3d a430 283e 5ac9 473e
00000010: f595 19be ae7a 6abe 4d14 54be 7938 cd3d
00000020: 31d9 84bd 976c 86bd 0623 1d3d b379 cbbd
00000030: 7916 c2bd 8637 11be 706c 2a3e f922 4e3e
00000040: 3e60 353e 1b3b 373e 74bc 53bd 8ac0 44be
00000050: 9755 36be 56db 23be 4f97 833e 917c e73c
00000060: 63dd 7d3e ae2d 8e3e f251 c73d db2d a63d
00000070: 8df5 2abe 794f c43d 7808 35be c026 1b3c
00000080: 99b4 a83c 93ce 0fbe 586c 723e b425 5bbd
00000090: 6d33 25be 35b9 1dbe 4235 c5bc 019c 923c
000000a0: 8ff8 6abd 5b05 3dbe fc9f 023e a7d3 6d3e
000000b0: 22c4 0a3e 807c 233e b951 efbd 74f5 fc3d
000000c0: 4537 1abe 6ce9 533e 70c0 513d 72b7 2a3d
000000d0: 7115 ea3d aee6 6fbe 4543 9fbe c44f ab3d
000000e0: d73f f13d 3e97 05be b3dc d8bd 91c1 ee3d
000000f0: 7bd0 46be a624 14be 68aa 7cbd 6905 c4bd
00000100: d275 e1bc 9df5 08bd fe10 783c 6b34 893e
00000110: 4397 853e 5cfb 343e 616a 7f3d e766 253c
00000120: 28ff 0dbe 8b49 1fbd 1d8f 283e 9558 d13d
00000130: 1719 e4bd e34f 80be 96c2 353d d156 17be
00000140: 4b1e 14be a693 36bd e307 673e af1a eb3d
00000150: a098 333e c3eb a3bd 6580 523e 94c6 57be
00000160: 3dbc 1fbe 1905 4cbd 3d67 e43d 3b6b e5bc
00000170: 25d5 5a3e 0a45 453e 4170 89bd fbc9 bf3b
00000180: a01c 23be 137c 963c 8952 703d 6763 42be
00000190: 462b 563b 8566 053d 8bc2 173e 15ca c43d
000001a0: d481 8abe 0636 a43d 6aa8 c33b f927 093e
000001b0: 1ce4 3f3e d622 3a3e 1ae7 033e 0189 79be
000001c0: 905e 373e e76e 10be 59ad 57be 2bd1 633b
000001d0: c157 733d 2b05 a2bc 89c9 90bc 9210 a33d
000001e0: 5862 813b 0245 0a3e 9680 a5bd c137 8bbd
000001f0: b918 8bbe d64d 4bbe d835 2bbe 7ffb 0c3e
00000200: c135 4fbe 60e5 9f3d 08e0 9cbd c56e 883d
00000210: 3626 38be 7d70 553e db36 44bc 6f38 80bd
00000220: 74c1 253e 880e 373e 3bd3 8cbe b000 87be
00000230: a521 e33d 3451 5a3e 8ea0 ae3d ad9c 01bd
00000240: 43b9 fd3c a1ff 52bd d01d 2fbe 568e e03b
00000250: cdc9 883c 8231 21be e12c 3a3e a111 423e
00000260: 642f f93c 3d8b 2fbe c69c f0bd d8a2 1f3e
00000270: e43b 823d 0b46 31bc 1cf3 233e 81ac 15be
00000280: d449 edbd b04c 2c3e 169b d3bd e349 debd
00000290: 0d2d 19bd 9f96 17bd cff6 a33d f557 133c
000002a0: 1af5 723e 6e3d ff3c d7fd 033e fba0 4ebe
000002b0: c1f1 943d 20e6 f3bc e3a4 7abe 5d1c 5b3c
000002c0: 64f1 a4bd f51c f4bd 8ffc 28bd ceb7 383d
000002d0: 906a a63d b5c2 42be 1ff5 9a3e 9ab4 843e
000002e0: 1d1d a63d 2c5b f6bd 888b 1dbd e569 43be
000002f0: a6ef a5bd 2b81 89be 4e2f e0bd 5880 b2bd
00000300: 8459 f43d 9f85 133d 0b01 0d3e 7993 383e
00000310: 9b2f 5ebe e3e6 b73d 6dde f73d 9f0f 5bbe
00000320: 16d9 3e3e 4d10 4bbc a072 333e b010 7abe
00000330: 8aec 18be 2d1b 87be 8794 b23d 3606 043d
00000340: e5ae 323e 9453 623e b589 bf3c 3408 13be
00000350: 651c 7b3d 8a7c 51be 5640 55bd b3ef 51be
00000360: b6d8 dfbd bcee a13d 93e3 013d a228 3c3e
00000370: e3cf ebbc 54e8 01be d9f8 52be ce90 adbd
00000380: 06d4 d53d 0da1 a83d 4754 3f3e 8006 723e
00000390: e695 d53d a5e1 0ebe 24b7 c63d 418d e03d
000003a0: 224a 073e fc8d 3abe 2c15 1d3e e74b 3e3d
000003b0: 7f5f 88be d02e 25bd 36e9 ba3d 219a 16bd
000003c0: 23ad 16be 5d0e 74bd a6b0 20be cbdf cfbb
000003d0: 8c61 f03d 243b 813e df74 753e d45e be3c
000003e0: 151a 9c3d 9e3c 6cbe de86 5bbe fb8e 6a3d
000003f0: 20f4 ff3d 3dd4 693e 0790 f7bd e2ab 3abd
0.08978051 0.0834725 0.16424805 0.19510403 -0.1499861 -0.22898361 -0.20710869 0.10020537
-0.064867385 -0.065636806 0.03836348 -0.09935322 -0.094769426 -0.14181337 0.16642928 0.20130529
0.17712495 0.1789364 -0.051693395 -0.19214073 -0.17806087 -0.16001639 0.25701377 0.02825764
0.24791484 0.27769226 0.09732427 0.08114215 -0.16695233 0.09585471 -0.17679012 0.009469688
0.020593928 -0.14043646 0.23674142 -0.053502753 -0.16132899 -0.15402682 -0.024073247 0.017896654
-0.05736595 -0.18459074 0.12756342 0.2322527 0.13551381 0.15965462 -0.11685509 0.12351504
-0.15060146 0.20694512 0.051208913 0.041678853 0.11429871 -0.23427841 -0.3110601 0.083648235
0.117797546 -0.13045976 -0.1058897 0.116580136 -0.19415466 -0.14467105 -0.06168595 -0.095713444
-0.027522001 -0.03343736 0.01514077 0.26797804 0.26091966 0.17674011 0.06235731 0.010095335
-0.13866866 -0.038888495 0.16460843 0.10221974 -0.11137598 -0.2506095 0.044375025 -0.14779212
-0.14464681 -0.044574402 0.22561602 0.11479699 0.1753869 -0.08003952 0.20556791 -0.21071845
-0.15599151 -0.04980955 0.11152504 -0.028005233 0.2137037 0.19264618 -0.06710864 0.0058529354
-0.15928888 0.01836971 0.05867246 -0.18983231 0.0032679602 0.032568473 0.14820306 0.096088566
-0.27052176 0.08018117 0.0059710043 0.13394155 0.1873936 0.18177351 0.12881127 -0.24368669
0.17907166 -0.14104806 -0.2106222 0.0034762125 0.05940986 -0.019777855 -0.017674224 0.07962145
0.003948491 0.13502887 -0.080811664 -0.067977436 -0.271673 -0.19853911 -0.16719759 0.13767813
-0.20235349 0.07807422 -0.07659918 0.066617526 -0.17983326 0.20843692 -0.011975969 -0.06260764
0.16187078 0.17876637 -0.27504906 -0.26367712 0.110904016 0.21320039 0.08526717 -0.03164356
0.030972129 -0.051513318 -0.17101216 0.0068529053 0.016697789 -0.15741542 0.18181182 0.18952037
0.030418105 -0.17142959 -0.11748652 0.15589464 0.063590795 -0.010819922 0.16010708 -0.14616586
-0.11586347 0.16826129 -0.10332315 -0.108539365 -0.03739648 -0.037008878 0.080060594 0.008993139
0.23726311 0.031157222 0.12889801 -0.20178597 0.072726734 -0.029772818 -0.24476962 0.013373462
-0.08053854 -0.119195856 -0.041256484 0.045097165 0.08125794 -0.19019587 0.30265138 0.25919038
0.08111022 -0.120291084 -0.038463145 -0.19083364 -0.0810235 -0.2685636 -0.10946523 -0.08715886
0.11931136 0.036016103 0.13769929 0.18025006 -0.21697848 0.08979585 0.12102971 -0.21392678
0.18637499 -0.012394023 0.17524195 -0.24420428 -0.14933982 -0.2638792 0.087197356 0.032232486
0.1744953 0.22102195 0.023381094 -0.14358598 0.061306376 -0.20457664 -0.05206331 -0.20501594
-0.10930006 0.07906863 0.031711172 0.18374875 -0.028785652 -0.12686282 -0.2060274 -0.08474885
0.10440831 0.08233843 0.18684493 0.23635292 0.104289815 -0.13953264 0.097029 0.10964442
0.13211873 -0.18218225 0.15340108 0.046459105 -0.26635358 -0.040327847 0.09126513 -0.036768083
-0.14714484 -0.05958401 -0.15692386 -0.006343817 0.117373556 0.25240433 0.23970364 0.023238577
0.07622162 -0.23069999 -0.21438166 0.057265263 0.12497735 0.22834869 -0.12088018 -0.045574076

weight f4 [32, 16, 3, 5]
00000000: 7697 febd 8faf 0bbe 4aec 9dbc 6656 7c3b
00000010: 1125 683d ca62 34bd e980 0bbe 11cb b9bd
00000020: 7079 f13d d7ae 543e a01b 393d fe89 a53c
00000030: 50ec 623d 9532 173e f848 093e abce 78bd
00000040: 2127 fc3c a471 55bd 8cef 2abd ff42 02be
00000050: 726c 243e 7760 d03d 660a a23d e696 fb3c
00000060: ddae 803d c754 d93d 7a91 bb3d 878f 153e
00000070: 0993 923d 86e4 743d bf76 2bbe 7963 0bbe
00000080: a1c1 65bd 8f1a 4dbd 0196 f03d 3de7 babd
00000090: d25a 60bc 1ad3 3e3d 766c cf3d 6c6e 103e
000000a0: a59e 87bb 807b 0f3d 7299 b33c 1900 f53d
000000b0: dc99 853e 55ac 0b3e 1ff3 0e3e 0057 763c
000000c0: 0f55 b4bd ace6 17be 7c96 173e 6c04 a73d
000000d0: f0d0 273e 0aec f03c b42f 91bd cf44 4d3d
000000e0: 1711 793d 53cf cd3b 9716 9abd 597e 2bbe
000000f0: 69b4 71bd 8313 a0bd 7b88 30bd a224 cd3c
00000100: ea9a 6dbb b7cd c03b 4e71 a0bd afca 0a3d
00000110: f71c 62bc 6ba6 3a3d 411e 8c3d e1e8 893d
00000120: 69e9 873d 933d 673d 3278 ce3d 58c6 b0bd
00000130: 0713 09be 87dd 45bd 0f43 eeba d101 da3c
00000140: 4de7 65bd 20b9 31bc ba83 a3bc 1db0 89bc
00000150: 79dd c13d d687 943d 661e ce3d 7d33 7d3d
00000160: 2346 0e3e 7e30 e53d 67a6 fdbd f7da 37be
00000170: 8792 8e3c 5552 713d b360 733e c063 40be
00000180: 4122 2abe 229d d33b aafb 6a3c 5f1a c33d
00000190: bd27 e4bc 17e4 96bd 45da 5dbc 3dbf e03d
000001a0: c607 343e 6773 2abc 99b0 7bbd 2cdf 083d
000001b0: eb03 4bbd 51d5 1bbd fddb 4e3c eba9 9bbd
000001c0: 6eec 573d c086 b73d 14b4 d2bb f5d5 aabc
000001d0: e7c9 553c 577a 4bbc b948 ffbb bc3f bf3d
000001e0: 248a 09be f48b c7bd 9cf4 97bd 9a49 a43c
000001f0: bf68 5f3e 474c 4fbd 62b9 1cbe 0a40 7bbc
00000200: 0832 213d 7cb8 343e e5f0 75bc 1762 83bd
00000210: 147c 09bd bf7d a23c 2ff7 353e e90a 0b3e
00000220: ca36 8f3d b7ef fd3d 481e fbbd 0ab3 35be
00000230: 5b8a ca3d 06ca 9f3d 4c21 f93d c856 69bd
00000240: 45af 57be 085c a33d 8e56 88bb 66fd 21bd
00000250: a6fa 5bbd 7a23 48be b316 293d 6451 893c
00000260: ebe6 a53b 73b6 783d b87a 3d3e 35a6 39be
00000270: 3429 25be 822c 39be e74e c3bd db70 c9bc
00000280: c7cf 50bd f46f 9ebd 67a1 9cbd f96f f2bc
00000290: 46fb 4bbd 5259 b9bd 8c9d 12be 628b 13be
000002a0: 7aac 43bd 419a 6b3d 2bae b03c d96a dabc
000002b0: e98c b9bd 87f8 ce3c 6933 e33d 9274 973d
000002c0: b7de 22b8 730f 85bd dac4 edbb 3562 093e
000002d0: 0b68 54bd d145 5dbd 8f7c 333d be7d 47bb
000002e0: 95a3 aabd 6a37 9d3d 866c 8fbc fb1a 2d3d
000002f0: 0595 6e3c 3c61 003d 5b4a 483c 0039 74bb
00000300: 66e0 7b3d 544b af3c fc6a 43bd bd8d 893e
00000310: 2af4 6e3e 915a fc3d bef7 a53d d4e0 b8bd
00000320: a831 273d 4b42 3a39 95ea 50bd 39de d7bd
00000330: 3167 2ebe 27b8 94bc d917 2bbc ebb4 f9bd
00000340: 39bb 58be 0fd4 8bbe 740f 963d 382e 003e
00000350: 1dc2 293d e87d 65bd 4ade 0dbe 8c82 563d
00000360: 06c3 953d 8702 1f3d 27cb 01be 9565 01be
00000370: f358 2dbd 2bbb 9c3d 4675 0f3c 1128 9cbd
00000380: ebfc 61be 9cd1 cdbd fd5e 09be 5655 98bd
00000390: 6401 843d 7dfe d53d 619a 2bbd a274 21be
000003a0: b1d6 293c d218 d93c d40a 103e 3193 8ebd
000003b0: 301d a5bc 2be9 70bc c20b f63d 5399 3f3e
000003c0: 049d 13be a8b4 62bc cf10 073e e1bc 323e
000003d0: d41a 713e 7648 62be a2c4 07be 8242 44bc
000003e0: 0dbd 343e 79c5 4c3e 82b1 3ebe 3d25 5fbd
000003f0: f91c e2bc 25d2 453d ead0 ca3d 3fd4 ef3b
-0.12431233 -0.13641189 -0.01927771 0.0038503646 0.056675974 -0.044039525 -0.13623394 -0.09071935
0.117907405 0.20769821 0.04519236 0.020207401 0.055401146 0.1476539 0.13406742 -0.06074397
0.030780377 -0.05211033 -0.041732356 -0.1272087 0.16056994 0.10174649 0.079121396 0.030711602
0.062833525 0.10611873 0.09158607 0.14605533 0.07156951 0.05978825 -0.16744517 -0.13612165
-0.056092862 -0.050074156 0.11747361 -0.091261365 -0.013693528 0.04658804 0.10128109 0.14104623
-0.004138785 0.03502989 0.021923754 0.11962909 0.26093948 0.13639958 0.13959931 0.015035391
-0.08805286 -0.14834088 0.14803499 0.0815514 0.16388297 0.029409427 -0.07089177 0.05011445
0.060807314 0.0062808185 -0.0752384 -0.16747417 -0.059009943 -0.078162216 -0.043098908 0.025041882
-0.0036255666 0.005883898 -0.07834111 0.0338847 -0.013800851 0.045568865 0.06841708 0.06733871
0.06636316 0.056455206 0.10081519 -0.08631581 -0.13386165 -0.048306968 -0.0018177944 0.026612194
-0.05612879 -0.01084736 -0.019960273 -0.01680761 0.09466071 0.07252471 0.10064392 0.06181668
0.13893943 0.1119089 -0.12385254 -0.17954622 0.017403854 0.05891641 0.23767357 -0.18788052
-0.1661463 0.0064579407 0.014342228 0.09526514 -0.02785098 -0.073677234 -0.013540809 0.10973976
0.1758109 -0.010403491 -0.061447714 0.03341596 -0.049564283 -0.03804523 0.0126256915 -0.07600769
0.05271571 0.089612484 -0.0064301584 -0.020853976 0.013048626 -0.012419305 -0.0077906516 0.09338328
-0.13431603 -0.09743491 -0.074197024 0.020054627 0.21817301 -0.050609853 -0.15305093 -0.015335092
0.039354354 0.176485 -0.015011047 -0.064151935 -0.033565596 0.019835351 0.17770074 0.1357838
0.06992872 0.123992376 -0.12261635 -0.17744079 0.098896705 0.07802205 0.12164554 -0.056967527
-0.21062954 0.07976538 -0.0041607087 -0.0395483 -0.053705834 -0.19544783 0.041281413 0.016762443
0.005062928 0.060720872 0.18503845 -0.18129809 -0.16128999 -0.18083385 -0.09536534 -0.024589946
-0.050979402 -0.07736197 -0.076479726 -0.029594408 -0.04980018 -0.090502396 -0.14317912 -0.14408639
-0.04777191 0.057520155 0.021567425 -0.026662277 -0.090600796 0.025264991 0.1109379 0.07395281
-3.883123e-05 -0.06497087 -0.0072561326 0.1341637 -0.051857036 -0.05402166 0.04381996 -0.0030439938
-0.08331982 0.07676585 -0.017507803 0.04226206 0.014561896 0.03134273 0.012224759 -0.003726542
0.0614933 0.021398224 -0.04770945 0.2686595 0.23335329 0.12321962 0.08103894 -0.090272576
0.04081884 0.00017763038 -0.051004965 -0.105404325 -0.17031552 -0.018154217 -0.010442697 -0.121927105
-0.2116517 -0.27310225 0.07327166 0.12517631 0.041444886 -0.056028277 -0.13854328 0.052370593
0.073125884 0.03882077 -0.12675153 -0.12636407 -0.042321157 0.07652887 0.0087559875 -0.076248296
-0.22069137 -0.100497454 -0.13415141 -0.074381515 0.06445578 0.104489304 -0.041895274 -0.15767148
0.010366128 0.026501093 0.1406663 -0.06961668 -0.02015552 -0.014704029 0.120139614 0.18710832
-0.14415365 -0.013837017 0.13190006 0.17454864 0.2354539 -0.22097954 -0.13258603 -0.011978747
0.17650242 0.19997205 -0.18622401 -0.054478873 -0.027601706 0.048296113 0.099031284 0.007319003

weight f4 [64, 32, 3, 3]
00000000: cd55 843d 8d8d e93d c64d d33c 8e66 043d
00000010: a794 623b 2b16 9abd 7325 25bd d4c4 b83d
00000020: fbbd 243d 7f33 7cbd 8e21 ba3c 27ec cb3b
00000030: 0ca2 593d 8b73 c83d b5e1 b73c 6f79 35bd
00000040: 68bc 873d 078b 73bc adf7 8d3d 8090 4c3d
00000050: 67e6 543d 3c27 8f3b b4d8 033c 55a5 683d
00000060: a1dd b5bd b196 d33b 7b42 c83d 9496 893b
00000070: 8e0a c93d 8b7d 82bb 6a2f 06bc 2c1c 6bbd
00000080: 5313 fd3b 2e4b 8abd 166d f5bc 77f5 1dbc
00000090: 7089 243d c526 94bd f1a3 bcbd c2d9 1dbd
000000a0: 1b97 7e3d 6275 d2ba db40 4d3d 3b7c 4a3d
000000b0: 82cb 15bd 3087 87bc b25d 653d c6c0 b73d
000000c0: 56e8 8cbd 264f f9bc 5736 9d3d 5b40 a6bd
000000d0: 18ca 10bd dfdb a8bc d312 1b3d e930 d03d
000000e0: ce37 af3d a52c 2f3d a88d b9bd f796 c1bd
000000f0: bc32 483c 6b5a 7cbb 5d81 91bc eaa8 c5bb
00000100: 4a35 57bd 384b d33c 5293 603d 804a b63d
00000110: 9c1b a33c fb78 113d 38dd 4dbd 001b 88bd
00000120: 26dd 51bc 0995 98bd ea79 e4bc 86ea 833c
00000130: 778a 793d 7241 e03c c06d 9fbd 9312 dcba
00000140: dcaa 85bc 800c 893c 03fd 13bd 5f23 cb3c
00000150: 664c 883c 20bf 813c 26cc 21bd cccc ab3c
00000160: 06a8 803d d519 7bbc 030c 523d dbbb af3c
00000170: eabb b93c 1dc1 92bc d07d 5abc 9e15 833b
00000180: 24ef 423d 0144 9a3c c3bc 193d 9c20 9bbc
00000190: 45a2 25bd 6a3f 9e3c cc95 263d 7101 bb3d
000001a0: 09e1 723c 0bfd 56ba 50da 33bd 7cee 55bc
000001b0: 5ff4 913c 22fa e8bc b23e 8b3d e07b 123d
000001c0: fe3f b8bd d1f5 2cbd 173a 6bbc 780c 353d
000001d0: d786 abbc 7a2f 39bc 1876 413d 4b56 8dbc
000001e0: 107d 24bc 37bc 913d 0e86 663d 1d92 be3c
000001f0: 7422 51bd 38a4 ba3d c445 593d 5478 a3bc
00000200: 8267 31bd c7dd cdbc e783 773c f468 c33c
00000210: 205f d93d 5086 9e3c e989 abbb 1575 623d
00000220: 80b0 01bb 8809 f73a d0cd f6bb a8a4 97bd
00000230: 4ca9 bc3b 3919 24bd be80 183c e254 b23c
00000240: 90f9 f93c 0259 8f3c 3c36 033e 5bd3 333d
00000250: 7735 0cbd 4337 99bd 18f8 8b3c f624 473d
00000260: 6390 24bd 354e ea3c e03b 18bd a225 80bd
00000270: 31bb 1c3d 307b dfbc 945d 36bd b81e 01bc
00000280: d86b e63a 6005 34bd b543 3fbd b230 14bd
00000290: ff2a a03d 7ab7 c1bc 8899 debc f109 ebbd
000002a0: b6a9 923c 0d4d 0d3d 630a d5bc e04a 3bbc
000002b0: 4e63 0a3d 6f65 ae3d a139 b7bb 09c8 143d
000002c0: 01f3 61bd 0e01 0cbd ecd3 173d d8ec cdbc
000002d0: e44d 8c3c 14f7 cfbc aa60 89bd 2fea b93c
000002e0: 5a9c 8a3c 569e 903d 0f8e ae3b b770 b6bd
000002f0: 6e58 83bd df27 9dbd 43f7 ab3a bfac 883d
00000300: a9dd 10bd 966a 46bd 7bb9 88bd 6f51 9ebd
00000310: f815 f9bc becb 6ebd 4d14 a7bb b09e 3ebd
00000320: ddc3 d6bc 61ee b43d c199 183d 0303 ba3d
00000330: f8d5 82bc 8e30 133b c313 6ebd 5d43 ea3d
00000340: 6bbf cf3d 9d27 993d d4e6 003c 2706 c4bc
00000350: 02e7 34bc f64d 5b3d 4a3c 8fbb 119c b03c
00000360: fb0d 04bd fbbc 923d 3a61 0b3d e2b7 8abd
00000370: 68db 473d 4996 0a3c 061c 9dbd 1fd2 46bc
00000380: e6b1 923d f126 27bc 66a3 55bd 679d 01bb
00000390: e4e9 0fbc 4118 3fbd ec15 75bb 9aa0 9cbd
000003a0: 966e 003d b0b4 873d 682e 0dbd ca09 81bd
000003b0: bac7 abbc ad13 c03c 3f77 89bc 36b7 4a3d
000003c0: e122 c23c 8246 9f3b 6b52 433d 50de d93c
000003d0: 156a 243d 4e0b 84ba 4620 c6bc 8a7e a33d
000003e0: ed18 0e3d cb04 1bbd 051f 843d 7eef 6d3c
000003f0: 9646 863d ce11 aebb bf81 47bd 684c eb3c
0.06461678 0.11403952 0.025793921 0.032324366 0.0034573467 -0.075237595 -0.040318917 0.09021917
0.040220242 -0.061572548 0.022721078 0.00622322 0.053133056 0.09787663 0.022446493 -0.04430526
0.066277325 -0.01486469 0.06932006 0.049942493 0.05197754 0.004368691 0.0080472715 0.056798298
-0.08880163 0.006457173 0.09778305 0.0041988585 0.09816466 -0.003982251 -0.008190015 -0.057399914
0.007723251 -0.06752621 -0.029959243 -0.009641043 0.040170133 -0.07233957 -0.09210957 -0.03853775
0.062155824 -0.0016056711 0.05011068 0.04943488 -0.036571033 -0.016543955 0.055997558 0.089723155
-0.06880252 -0.030433249 0.0767638 -0.081177436 -0.03534898 -0.020612655 0.03785975 0.10165579
0.08555566 0.042767186 -0.09060222 -0.094526224 0.012219127 -0.0038506042 -0.01776188 -0.006032099
-0.052541055 0.025792703 0.054827996 0.089009285 0.019910626 0.035515767 -0.0502598 -0.06645775
-0.012809074 -0.07450301 -0.027890164 0.01610304 0.060923066 0.027374957 -0.07784605 -0.0016790204
-0.016316824 0.016729593 -0.036129963 0.02479714 0.016637992 0.015838206 -0.03950133 0.020971678
0.06282048 -0.015325983 0.051280987 0.021451881 0.022672612 -0.01791435 -0.01333566 0.0040003797
0.047591344 0.018831255 0.037533533 -0.018936448 -0.040437955 0.019317348 0.0406702 0.09131134
0.01482416 -0.00082011585 -0.04390937 -0.013057347 0.01781672 -0.028439585 0.067990676 0.035762668
-0.089965805 -0.042226616 -0.014357111 0.044201344 -0.02093832 -0.011302823 0.047231764 -0.017253062
-0.010039583 0.07115977 0.05628019 0.023263032 -0.051058248 0.091133535 0.05304505 -0.019954838
-0.043311603 -0.025130166 0.015107132 0.023853756 0.10613847 0.019351155 -0.005234946 0.05528744
-0.001978904 0.0018847445 -0.007531859 -0.074044526 0.0057574864 -0.040063117 0.009308038 0.02176899
0.030514508 0.017498497 0.12813658 0.043902736 -0.034230676 -0.074812435 0.017086074 0.048619233
-0.04017676 0.028601745 -0.037166476 -0.06257178 0.038264457 -0.02728042 -0.044522837 -0.007880859
0.0017579747 -0.04395044 -0.04669543 -0.036179252 0.07820701 -0.023647059 -0.027172819 -0.114765055
0.01790319 0.03449731 -0.02600593 -0.011431426 0.03378611 0.08515441 -0.0055915867 0.03632358
-0.055163387 -0.034180693 0.03706734 -0.02513735 0.017126985 -0.02538637 -0.0670789 0.022694675
0.016920257 0.0706145 0.0053269933 -0.089082174 -0.06413351 -0.076736204 0.0013119954 0.06673574
-0.03536764 -0.048441492 -0.066760026 -0.07730376 -0.030405983 -0.058299772 -0.0050988556 -0.046538055
-0.026216442 0.0883453 0.037256006 0.09082606 -0.015971169 0.002245936 -0.058124315 0.1143863
0.10143932 0.07478259 0.007867534 -0.023928715 -0.011041405 0.053541146 -0.0043712007 0.021558793
-0.032239895 0.071649514 0.03402827 -0.06773354 0.048793226 0.008458682 -0.07671361 -0.012135058
0.07162838 -0.010202155 -0.052157782 -0.0019777657 -0.008783791 -0.04665399 -0.00373971 -0.0764782
0.031355463 0.0662626 -0.034468085 -0.06300695 -0.02096926 0.023446882 -0.016780494 0.04949113
0.023698272 0.0048607 0.04768602 0.026595265 0.04014023 -0.001007417 -0.024185311 0.0798312
0.03469174 -0.037846368 0.06451229 0.014522431 0.06556432 -0.005312181 -0.04870772 0.028722957

weight f4 [1, 112, 3, 3]
00000000: 612e 863d 2ca6 663d dc12 9e3c 8f3b fc3c
00000010: 5298 d23c 9f18 b9bc 0f91 46bd 2bb8 ff38
00000020: 1971 cebc 0d5b d7bc f0ea 543c 77a4 82bc
00000030: ec1e e63b c504 903c 13cc d0bc 309e 27bd
00000040: 3cdf 22bd 5a0b 1dbd d11a efbb e4ad 903b
00000050: 2597 1a3b ee5e 803a 5539 a43c dcbc d73c
00000060: 51cc 25bd f177 22bd c92a 25bd 1884 b7bc
00000070: 6d4d dcbc 4873 083c 45a2 313d bf23 a83c
00000080: 0d1b 2e3d c9c3 a3bd dbb8 b4bd 5665 30bd
00000090: b299 2d3d 592e db3c 718e d33c 9347 eb3b
000000a0: 0a5c 073d 0546 253a 80d8 9d3c cc83 95bc
000000b0: 59b3 74bc abaf ba3c c7b3 433d 12fe 803d
000000c0: 849e 333d a848 123d c3db 243d 865b f3ba
000000d0: 2f40 64bc 47df d4bc 291a 4d3a 2de4 103c
000000e0: a94c c3bc 7c25 7fbd 07fa 2dbc 99f1 06bd
000000f0: 804c d3bc 60c0 19bc 9ee8 f73c 5b54 8a3b
00000100: 4f57 603d b25f 703d f128 ca3c ce6f af3b
00000110: 5b19 e43c 15fc 123d 4a88 ca3c 4c79 ea3b
00000120: bbce 87bd 6e5c b5bc d3a8 d8bc 5a23 3abd
00000130: f9a2 e2bc 7aed 76bd bb6a 06bd 9651 af3b
00000140: 3d51 ccbc fd40 8f3d 89f5 f63c 9f00 823d
00000150: 731f 093d 9462 10bc 3ba4 493d f9a8 3b3d
00000160: 55e1 203d 8823 583c fec5 05bd 93d9 58bd
00000170: 9750 efbc 6753 08bd 7f43 84bd 9768 6abd
00000180: 5dda 18bd 697c eabc 7895 81bc 908f f8ba
00000190: 7e46 4cbc a47c 65ba 0c3d b6bc 1d74 f5bb
000001a0: cb94 f4bc 509b 56bb 235c ea3c bdf9 2bbd
000001b0: 008c 4c3c b465 d53c b7a1 183d 0f11 693c
000001c0: 42f9 443d 3459 db3c 9cf8 c93c 422d 353b
000001d0: dcbd d5bb 213c 76bd 7e36 82bd a07b 0ebd
000001e0: 1a6e 54bc d2d6 64ba 9d6a 223c 0a11 a83d
000001f0: 2ba6 ae3d a103 c13d f30c 423d 4166 353d
00000200: 7349 dc3d 3e65 a9bd 73f5 d4bd 1a31 98bd
00000210: 0e40 993b ac92 fd3c 0994 753d 9d9a 5e3b
00000220: 918c 1e3d 9091 b83c e048 163b 6f75 f53c
00000230: 1538 e83c 4b4e b23c 8c82 8c3c 7bc8 67bc
00000240: 7232 be3c dcc7 d13c e6f0 673c 2a06 92bc
00000250: 761a cebc 0e33 b5bc 406e 893d aa8b 833d
00000260: 2597 a33d 9c93 793d 125b 9a3c f974 d53c
00000270: 701b a73d 9e8b 8d3d a7fe 8d3d 48e1 7fbc
00000280: bf92 36bd e0f7 31bd 4305 fb3b 7e9d 713c
00000290: 7b00 e53c a653 e03b 7858 913c 62b5 23bc
000002a0: 545b 453c 9ead c63b 966b 84bc 8249 40bb
000002b0: ce96 36bb b57e 783c 05f7 82bc 581e 29bd
000002c0: 8a51 48bd 76f6 a63d d2d6 1f3d 5f09 9c3c
000002d0: ac96 a93c 1436 cb3a f9ca 45bc bd17 963c
000002e0: 167f 553d a3bb de3b dc1d 58bd d1de 14bd
000002f0: 428c 48bd 3fc1 b73d c7d9 093d d67e 0b3d
00000300: 7643 bb3d f6bb af3d 9a3c b33d 0553 6a3c
00000310: 5d8f 313d bcf3 303d 45ee f7bc 94d4 79bc
00000320: dcaf aabc f4ae 16bd fca1 b1bc 137e 29bd
00000330: 3176 893d 5510 053d 9a5a 4b3d 37ce 83ba
00000340: 8355 5bbc a8e1 ccbc be3a 0b3d 2a01 a53c
00000350: 6b0c 0d3d 2eb5 b7bc 38c8 883c 94ba ffbc
00000360: d944 4c3b e92d 173a d2ee 8c3b 0bfd 223d
00000370: 4f85 013c 4a4e 103d fe7d 9fbc 8c52 d2bc
00000380: a67f 4abd 82c5 593d 43ad 843c a1f1 983b
00000390: 82cc 443a 3721 00bc 1b51 4dbb 0f69 673b
000003a0: 842d bd3c 4608 083c d0b8 ea3a cc21 05bd
000003b0: dfb6 b6bc e884 7cbc bb17 073b 87ee 2bbc
000003c0: d757 d03c 1eed ed3c 4179 b4bb 0665 0abc
000003d0: 436a dd3c 7c6f 223d f49b 213d 18a9 373d
000003e0: f88c bf3c d609 4cbd 9225 6abd 734a 2ebc
000003f0: af33 97bc 0bd1 95bb b634 09bd 2314 63bc
0.06551815 0.056310818 0.019296102 0.030790119 0.025707398 -0.022594748 -0.048478182 0.000121936515
-0.025200414 -0.026288534 0.012995467 -0.015947564 0.007022729 0.0175804 -0.025487935 -0.040922344
-0.039763674 -0.038340904 -0.007296898 0.0044152606 0.0023588624 0.0009793916 0.02004687 0.026335172
-0.040478054 -0.039665166 -0.040324006 -0.022401854 -0.026892388 0.008328266 0.043367643 0.020524858
0.042506266 -0.079963274 -0.08824321 -0.04306539 0.042382903 0.026755499 0.025824757 0.007180163
0.03304676 0.0006304684 0.019268274 -0.018251322 -0.014935338 0.022788843 0.04777887 0.0629846
0.043852344 0.03571382 0.040248644 -0.0018566705 -0.013931318 -0.025985373 0.00078240276 0.008843464
-0.023840265 -0.062291607 -0.010618693 -0.03294525 -0.025793314 -0.009384245 0.030262288 0.0042214817
0.054770764 0.058685012 0.024677726 0.0053539043 0.027844122 0.035884935 0.02472319 0.007155573
-0.066312276 -0.0221388 -0.02644769 -0.04544387 -0.027665602 -0.06028507 -0.03281663 0.005350302
-0.024941081 0.069948174 0.030146377 0.06347775 0.033477258 -0.008812565 0.049228888 0.04581544
0.039277393 0.013192065 -0.032659523 -0.05294187 -0.029213233 -0.033282664 -0.06458186 -0.05722865
-0.037317622 -0.028623777 -0.015818343 -0.0018963683 -0.0124679785 -0.00087542296 -0.022245906 -0.0074906484
-0.029856106 -0.0032746382 0.028608387 -0.041986216 0.0124845505 0.026049472 0.0372636 0.0142252585
0.048089273 0.026775934 0.024654679 0.0027645384 -0.006522877 -0.060115937 -0.0635805 -0.034785867
-0.012965703 -0.00087295205 0.009913114 0.08206375 0.08527788 0.0942452 0.04737563 0.04428697
0.10756197 -0.082712635 -0.10398378 -0.074312404 0.0046768254 0.030953728 0.05995563 0.0033966668
0.038708273 0.022530347 0.002293162 0.029963223 0.028347054 0.021765849 0.017152093 -0.014146919
0.023217414 0.025607996 0.014156556 -0.017825205 -0.025159102 -0.022119071 0.06710482 0.06423123
0.07987813 0.060931787 0.018842254 0.026056753 0.0815953 0.069113955 0.06933337 -0.015617676
-0.04457354 -0.043449283 0.0076605394 0.014747022 0.02795433 0.006845909 0.01774238 -0.0099919755
0.0120457 0.0060631773 -0.016164582 -0.002934069 -0.0027860883 0.015166928 -0.015986929 -0.041288704
-0.048905887 0.081524774 0.039023228 0.019047437 0.020701729 0.0015503787 -0.012072318 0.018321866
0.05212315 0.0067972704 -0.05276285 -0.036345307 -0.048961885 0.08972406 0.033654954 0.034056507
0.091437265 0.085807726 0.08751793 0.01430202 0.043349613 0.043201193 -0.030264983 -0.0152484365
-0.02083581 -0.036787942 -0.021683685 -0.04138 0.06711996 0.03248628 0.04964695 -0.0010055964
-0.013387087 -0.025009945 0.033991568 0.020142157 0.03443567 -0.02242526 0.016697034 -0.031216897
0.0031168966 0.0005767034 0.0043009305 0.0397921 0.007905318 0.035230912 -0.019469257 -0.025674127
-0.04943814 0.053166874 0.016195899 0.0046674763 0.00075072807 -0.007820419 -0.003132886 0.0035310423
0.023092993 0.008302754 0.0017907862 -0.032502934 -0.022303997 -0.015412547 0.002061351 -0.010493881
0.02543251 0.02904373 -0.0055076187 -0.008446937 0.027028209 0.0396571 0.03945537 0.044838995
0.023382649 -0.049814068 -0.057164736 -0.010637867 -0.018457262 -0.004572039 -0.033497535 -0.013859781
